(24, 4)
Загрузка данных
Загрузка модели
Загрузка модели2
Model: "sequential_11"
_________________________________________________________________
 Layer (type)                Output Shape              Param #   
=================================================================
 simple_rnn_1 (SimpleRNN)    (None, 40)                1800      
                                                                 
 dense_25 (Dense)            (None, 200)               8200      
                                                                 
 dropout_14 (Dropout)        (None, 200)               0         
                                                                 
 dense_26 (Dense)            (None, 150)               30150     
                                                                 
 dropout_15 (Dropout)        (None, 150)               0         
                                                                 
 dense_27 (Dense)            (None, 1)                 151       
                                                                 
=================================================================
Total params: 40,301
Trainable params: 40,301
Non-trainable params: 0
_________________________________________________________________
Предсказание

1/1 [==============================] - ETA: 0s
1/1 [==============================] - 0s 158ms/step
Предсказанные значения МЭП:  [[… (24, 4)
Загрузка данных
Загрузка модели
Загрузка модели2
Model: "sequential_11"
_________________________________________________________________
 Layer (type)                Output Shape              Param #   
=================================================================
 simple_rnn_1 (SimpleRNN)    (None, 40)                1800      
                                                                 
 dense_25 (Dense)            (None, 200)               8200      
                                                                 
 dropout_14 (Dropout)        (None, 200)               0         
                                                                 
 dense_26 (Dense)            (None, 150)               30150     
                                                                 
 dropout_15 (Dropout)        (None, 150)               0         
                                                                 
 dense_27 (Dense)            (None, 1)                 151       
                                                                 
=================================================================
Total params: 40,301
Trainable params: 40,301
Non-trainable params: 0
_________________________________________________________________
Предсказание

1/1 [==============================] - ETA: 0s
1/1 [==============================] - 0s 128ms/step
Предсказанные значения МЭП:  [[… (24, 4)
Загрузка данных
Загрузка модели
Загрузка модели2
Model: "sequential_11"
_________________________________________________________________
 Layer (type)                Output Shape              Param #   
=================================================================
 simple_rnn_1 (SimpleRNN)    (None, 40)                1800      
                                                                 
 dense_25 (Dense)            (None, 200)               8200      
                                                                 
 dropout_14 (Dropout)        (None, 200)               0         
                                                                 
 dense_26 (Dense)            (None, 150)               30150     
                                                                 
 dropout_15 (Dropout)        (None, 150)               0         
                                                                 
 dense_27 (Dense)            (None, 1)                 151       
                                                                 
=================================================================
Total params: 40,301
Trainable params: 40,301
Non-trainable params: 0
_________________________________________________________________
Предсказание

1/1 [==============================] - ETA: 0s
1/1 [==============================] - 0s 120ms/step
…
